…
2)))\nmodel.add(Conv2D(filters=16, kernel_size=(5,5), padding='valid', activation='relu'))\nmodel.add(MaxPooling2D(pool_size=(2,2)))\nmodel.add(Flatten())\nmodel.add(Dense(256, activation='relu'))\nmodel.add(Dropout(0.25))\nmodel.add(Dense(84, activation='relu'))\nmodel.add(Dense(10, activation='softmax'))\n\n\nmodel.build()\nmodel.summary()\n\nModel: \"sequential\"\n_________________________________________________________________\n Layer (type)                Output Shape              Param #   \n=================================================================\n conv2d (Conv2D)             (None, 28, 28, 6)         156       \n                                                                 \n max_pooling2d (MaxPooling2  (None, 14, 14, 6)         0         \n D)                                                              \n                                                                 \n conv2d_1 (Conv2D)           (None, 10, 10, 16)        2416      \n                                                                 \n max_pooling2d_1 (MaxPoolin  (None, 5, 5, 16)          0         \n g2D)                                                            \n                                                                 \n flatten (Flatten)           (None, 400)               0         \n                                                                 \n dense (Dense)               (None, 256)               102656    \n                                                                 \n dropout (Dropout)           (None, 256)               0         \n                                                                 \n dense_1 (Dense)             (None, 84)                21588     \n                                                                 \n dense_2 (Dense)             (None, 10)                850       \n                                                                 \n=================================================================\nTotal params: 127666 (498.70 KB)\nTrainable params: 127666 (498.70 KB)\nNon-trainable params: 0 (0.00 Byte)\n_________________________________________________________________\n\n\nWe now compile the model with the Adam optimizer and the categorical crossent
…
